data.pth (torch, 10346 bytes, 6 tensors)

l1.weight f4 [8, 131]
00000000: fac1 55be 14aa b33e 2ceb e53e 4f8a 0b3f
00000010: f2ac e43e b22c 59bf 3949 29bf 4319 a0be
00000020: 3e42 49be 6c3a 02be 2ff0 b23e b5b3 7a3e
00000030: eae7 1fbf 7b93 3ebe 413b 903e 6eff 543f
00000040: 4f8e 5a3f a5c7 443f 0ee5 893f 056c d0be
00000050: f31b e73e 9319 a1be 7836 973e 0239 973e
00000060: dcb9 6d3f eb55 37bf a93d 363f ff9a 243f
00000070: 0021 63bf 1b2b 3c3f ae98 5b3f 6a2d 333f
00000080: ec94 863e 4f1b bb3d 9ec5 11bd 2a3f 35bf
00000090: 4456 4b3f c32c d8be d7b8 e6be f6d0 7dbd
000000a0: 9220 193f 38ed 33bf 0a83 043e 4a91 85be
000000b0: 2ee0 103f 50e7 2cbf 500c 5dbe aaff 08bf
000000c0: a303 123f 6cf2 25be 2286 193e 14f2 6fbe
000000d0: e5d8 653e 982f 9ebd 510a 82bd a3db eabe
000000e0: 470e fbbc 1ce3 8f3f e987 983e 4dca 053f
000000f0: d907 653f 80d0 54be 0c77 8cbe 26ce 0a3f
00000100: 2f3f 8dbe 5adf a3be b4d4 513f d16e 80bc
00000110: 7770 993e ac63 043d f9f3 27bf 3f7d 6abf
00000120: b8aa fe3d e1c8 de3e 6ce7 4cbe 8cb1 6c3f
00000130: 2d1b 313f c752 0abe 2c1a a53f 6cfe 30bf
00000140: 6088 0e3f f649 02bf 49f6 c73e 2af3 b4be
00000150: 3f62 b8bd d296 b83e 6bad 9abd 1ff6 4bbf
00000160: 7e45 8f3f af4b f33e b597 123f b72f 203e
00000170: 7f4f 463f eab9 e43e d0bd 46be e572 f0be
00000180: 21bf 8cbe 3eea 3c3f 2d76 ffb7 03cf a33e
00000190: 1200 3d3f 7d63 58bc 1b13 c33d 6d6d 79bf
000001a0: d563 4fbf 6a88 9e3e b6c4 0dbf f2c9 49be
000001b0: 3134 10bb 0951 4c3f 2539 34bf 854d d7bd
000001c0: 4aa2 45bf f2ae 47be 9774 5d3e 040e 93be
000001d0: bf69 8c3e e7a5 91be 41e7 81be dd11 4d3d
000001e0: 75c8 dabd e97b 7c3e 5796 46be 61c7 a63e
000001f0: 8c93 b13e e84e ee3c 32e9 84be fcb3 8c3e
00000200: 63dc 103f ccff 09bf dbd4 233c d144 473f
00000210: f33f 2dbe 3d0e c0bd 5763 053e aa5b 36bf
00000220: f1c5 403f c063 5d3f e777 583f 8d19 9a3e
00000230: b454 073f da4e a93e 8c24 88bc bf8a 563f
00000240: a001 05be 3ea7 8dbe d711 27bf a8e8 2bbf
00000250: f6d3 853f 0aeb 30bf 027d 5cbb 7dec b63e
00000260: 3ef6 2bbd 1722 96bd 7e7c c13d c7f8 39bf
00000270: 7e85 633f abe8 1cbf 6abe a6be 1ff5 07bf
00000280: a8d0 32bf e7d1 12bf d42a 633e b65e 8cbb
00000290: c443 c13e 6cfa 083f 2b05 8abe b156 90be
000002a0: 55c8 063f 7291 d6be 5029 5d3f 3012 8e3e
000002b0: 5d42 2bbe b584 803f 58d4 92be 8294 173f
000002c0: e5d3 463f d495 d73e 04e2 333f 1e37 133e
000002d0: ad22 b93d 73c7 bd3e c1f5 9ebe c58a b23e
000002e0: bc55 9a3e 4565 1d3e 30cf b1be fe81 1a3f
000002f0: 5235 46bf df87 953d f43f 623e bc7d 2ebf
00000300: 873e 5b3f da38 123f 9105 2e3f 6bcf 463f
00000310: c8a8 433f 1414 59bf c318 a33e 351f e43e
00000320: e066 dcbd a636 9a3e b333 39bf d2a0 583f
00000330: 65e5 c73e 0150 e33d 0322 54bf 15ce 20bf
00000340: 98a6 df3e 6d3b b6bd d026 513f dea7 73be
00000350: 82d3 403f 9fd3 92be e3d7 043e a1cd 5c3f
00000360: d36c bf3e 820a a03e 82ec 383f 1dd3 98bf
00000370: f42b 863e 80ed 8cbe 1432 8f3e a5c3 3ebe
00000380: c689 30bd abfd 68be 7cb1 96be 7fec 463e
00000390: 3116 913f 34df 63bd ebd9 7c3d dbe0 0bbf
000003a0: 1d88 27bd 1184 24bf 6939 af3e 5e1e cc3d
000003b0: 9341 f23e 089e 623f 497c 993e 2a42 c53e
000003c0: 3a68 e7bd f810 263c 5382 2bbe 2d3a 973f
000003d0: 035d 173f 5565 e33e 697f 143f 9438 7ebf
000003e0: 343c e43c a909 0c3f 2c09 08bf deb7 ac3e
000003f0: f79d 873f e2d6 5fbd 5814 b83e 432b 093f
-0.20874777 0.35090697 0.44905984 0.5450792 0.44663197 -0.84833825 -0.66127354 -0.31269273
-0.19654176 -0.12717599 0.3494887 0.24482615 -0.6246325 -0.18610947 0.28170207 0.83202255
0.85373396 0.76867133 1.0773027 -0.40707412 0.4513851 -0.31464824 0.29533744 0.2953568
0.92861724 -0.71615475 0.71187836 0.64299005 -0.8872223 0.73503274 0.85779846 0.6999117
0.26285493 0.09136068 -0.035588853 -0.70799506 0.79428506 -0.4222165 -0.45062897 -0.06196686
0.59815323 -0.7028384 0.12940612 -0.2608741 0.5659207 -0.67540455 -0.21586728 -0.5351511
0.570368 -0.16205758 0.14992574 -0.23432189 0.2244602 -0.077239215 -0.06349624 -0.45870695
-0.030646456 1.1241183 0.2979119 0.5226181 0.894651 -0.20782661 -0.27434576 0.5422081
-0.27587268 -0.3200634 0.81965184 -0.015677841 0.29968616 0.032321617 -0.6560665 -0.9159736
0.12434906 0.43512633 -0.20010155 0.92458415 0.6918209 -0.1350814 1.2898612 -0.69138217
0.5567684 -0.50894105 0.39055088 -0.3534177 -0.09003114 0.36052567 -0.07552608 -0.79672426
1.1193082 0.4751868 0.57262737 0.15643202 0.7746505 0.4467309 -0.19408345 -0.46962658
-0.2748957 0.73794925 -3.0453399e-05 0.31993875 0.7382823 -0.013207314 0.095251285 -0.97432595
-0.81011707 0.3096345 -0.5537828 -0.19705942 -0.0022003765 0.7981115 -0.70399696 -0.105128326
-0.7720076 -0.1950033 0.21626507 -0.2872163 0.27424428 -0.28446886 -0.25371745 0.050065864
-0.106827654 0.24656643 -0.19393288 0.3257399 0.34682882 0.02909036 -0.25959164 0.27481067
0.56586283 -0.5390594 0.009999479 0.7783938 -0.16918926 -0.09377716 0.13026176 -0.7123362
0.75302035 0.8648033 0.84557956 0.3009762 0.5286362 0.3306797 -0.01661899 0.8380546
-0.12988901 -0.27666658 -0.65261596 -0.6715188 1.045531 -0.6910864 -0.0033643846 0.357273
-0.04198288 -0.07330721 0.09447573 -0.7264523 0.8887557 -0.61292523 -0.3256715 -0.531084
-0.69849634 -0.57351536 0.22184306 -0.0042837514 0.37747014 0.53507113 -0.26957068 -0.2819114
0.5264943 -0.4190784 0.8639116 0.2774825 -0.16724534 1.0040499 -0.2867763 0.5921098
0.77667075 0.42106497 0.7026675 0.14376494 0.09039817 0.3706623 -0.3104687 0.34871498
0.30143535 0.15370663 -0.34728384 0.603546 -0.7742511 0.07301306 0.22094709 -0.68160605
0.85642284 0.57118 0.67977244 0.77660245 0.76429415 -0.8479626 0.3185483 0.4455506
-0.10761809 0.30119818 -0.7234451 0.8462039 0.39042202 0.11099244 -0.828644 -0.62814456
0.43681788 -0.08898053 0.8169985 -0.23794505 0.75322735 -0.2867708 0.12972979 0.86251265
0.37387714 0.31258017 0.7223588 -1.1939427 0.2620541 -0.27524948 0.27967894 -0.1862932
-0.04310014 -0.22753017 -0.29432285 0.19426154 1.1334897 -0.055632785 0.06173126 -0.5463998
-0.040901292 -0.6426402 0.34223488 0.099667296 0.47315654 0.88522387 0.29977635 0.38527042
-0.112991765 0.010135882 -0.16748933 1.1814629 0.591263 0.44413248 0.5800691 -0.9930508
0.027860738 0.5470224 -0.53138995 0.3373403 1.0595082 -0.054648288 0.3595302 0.5358164

l1.bias f4 [8]
00000000: 8f3f 563f 7f34 843f fbf8 ca3e 8c78 4f3f
00000010: 9cc9 913f c8e3 2a3f 7b03 b03f d590 a93e
0.8369073 1.032852 0.39643082 0.81043315 1.1389651 0.66753817 1.3751062 0.3311831

l2.weight f4 [8, 8]
00000000: 11a3 773f 478a 9d3f 145f 73bf 03b6 2bbf
00000010: c851 523f 5501 90be 51f8 1040 57a1 6abf
00000020: c1e7 c73e 6e28 fc3e 1856 0440 bf19 97be
00000030: 60e9 d3be 105a 133f 8d84 f4bd 25df f53f
00000040: 8d35 10bf 2155 ac3f d7a9 e43e 5cfc 0940
00000050: c3c4 dc3f e49e ab3f f1d2 90bf f797 58bf
00000060: 39a6 2a3f c421 c4bf 5905 eb3f fb14 5f3c
00000070: d3b1 ac3f 8eaf fc3e b660 dd3d 0da4 f6bd
00000080: 76da 0240 83de 5bbf 8faa 43bc 8abd 1f3f
00000090: 818d 5f3f c102 0340 cd76 40bd 6186 63bf
000000a0: 65fa e2be 1577 f93f 7a54 793e 15ec 3fbf
000000b0: 9a69 723f f9e2 10bf a8a8 1abe 0302 793f
000000c0: 9a92 8fbe feae b8be 10e0 ee3e 9635 ff3f
000000d0: 75f7 77bf 102f 76bd 1efe da3f 5457 bc3f
000000e0: bfd4 563f aa04 2c3f 5979 193f dadd babf
000000f0: d816 703f b3e9 5dbf a0a0 663e 7f0f 623d
0.96733195 1.2307824 -0.9506695 -0.670746 0.8215604 -0.28126016 2.265156 -0.91652435
0.39044002 0.49249595 2.0677547 -0.2951183 -0.41388988 0.575593 -0.119393446 1.9208723
-0.5633171 1.3463479 0.44660828 2.1560278 1.7247547 1.3407865 -1.1314374 -0.8460688
0.66659886 -1.5322804 1.8361007 0.013615842 1.3491768 0.49352688 0.10809462 -0.12043009
2.0445838 -0.858864 -0.01194252 0.6239859 0.8732529 2.047043 -0.046988297 -0.8887692
-0.4433166 1.9489466 0.24348632 -0.7496961 0.94692385 -0.5659633 -0.151034 0.97268695
-0.28041536 -0.36071008 0.4665532 1.9938228 -0.96861964 -0.060103476 1.71088 1.471415
0.83918375 0.67194617 0.59950787 -1.4598954 0.93784857 -0.8668472 0.22522211 0.05519056

l2.bias f4 [8]
00000000: 6a73 b03f 9c10 03bf f397 533f a0bb 7cbd
00000010: f450 fd3e 3d52 0e3f 4b8d be3e d176 4abe
1.3785222 -0.5119722 0.8265373 -0.06170237 0.49475825 0.55594236 0.37217173 -0.19771887

l3.weight f4 [33, 8]
00000000: 7957 acbe e6e5 14bf 1631 033e fa7f c53e
00000010: fa92 823e 5fc1 6fbe 330d 4ac0 5174 5bbd
00000020: c381 2e3f d66e c4bf 5638 a93e 1541 1bc0
00000030: ff15 1e3d 0659 233e 9dc2 7dbf 480f dcbf
00000040: 64cc 2d3f 138f eebf c656 60bf 1bef abbc
00000050: 1695 2d3f 8562 04bf 7163 04c0 3820 53be
00000060: d2e6 503f 04fa 6bbf bb1d e03d 9dd0 ffbf
00000070: 64bf e3bf ed7b 4d3e 746e e8bf e5b3 6b3f
00000080: 418e 55bf 02f0 11bf 1fd1 c73e aba9 c03e
00000090: 8243 f43e 236b d7bf 773c 88bf 3c12 32c0
000000a0: 43be c5bf 5dcb 02be f60d 4e3e b293 023f
000000b0: fd16 063f df14 94bf e972 10c0 222d 1bbf
000000c0: 47e5 95be 6223 54be 5610 2e3f 2fb6 c3bf
000000d0: 56ac ef3e 4e09 473e a370 2bc0 32af cdbf
000000e0: d468 943d 7c62 06c0 cf06 593e 8d16 8fbf
000000f0: 0061 8b3e 3977 f83e 953d 40c0 1143 183f
00000100: 1be3 96bf 153f 053e 6740 9dbd 84f1 eabc
00000110: 07c0 663c 1b6f 9b3e 0d2e 1bc0 e227 af3e
00000120: 5002 05c0 b97b 703e 0679 673e 9906 b1bd
00000130: 3508 2cbf 1fdf 883d ecc8 45bf 0928 06bf
00000140: 04a5 73bf 0de5 183e 838c f0be fcd1 963e
00000150: eef8 d73e 2197 d6be e2f6 8fbf 9489 33bf
00000160: c6c2 19be 52c4 d3bf ae9c 5b3e 7947 8f3e
00000170: a959 a13e e7d4 40bf 3d39 69bf f4e2 85bf
00000180: bc75 75bf ccfd 443e 63b3 93bf 9a42 ad3c
00000190: 68a2 b7bf 7345 89bf 6699 bc3e 3c59 54bf
000001a0: 7ce7 f4bf 6502 543e 6752 153f 4388 05c0
000001b0: a8d9 89be dca0 ab3e 6619 31bf 5daa 0ac0
000001c0: b7dd 13bf e3bd db3e ff65 fdbf 63b5 1c3e
000001d0: ee49 2f3d 0133 22bf 5756 6fbf bcc6 b83d
000001e0: 7722 8ebf 5e51 c6bd 4962 82bd 3489 9b3e
000001f0: f7a1 9dbe 9873 cfbe bdd9 2bbe 575b 33c0
00000200: 6e87 47c0 bffd 1bbe cf69 ac3e bbd6 c53e
00000210: 0a4e a83e 4959 5fbf e6f0 1abf c8ad 10c0
00000220: 196c 043f 4fde afbe b3bc 02c0 a6eb 91be
00000230: 625c 2a3e 19c6 b0bf d798 03bf 120e 39bf
00000240: 5699 90bf 37fc 943e 3aa6 3b3e f329 f7bf
00000250: 2fa5 89bf 5fda 2dbf 6a2e 943e 7b3b 1cc0
00000260: 38a8 b63d ded7 853e 1fd3 afbf 3eb8 09c0
00000270: 94f7 96bf 671c 183e 0a2c 353e e4b9 f7bf
00000280: 5d16 cb3e c437 a43d ce9b cdbf fd75 1ac0
00000290: 2411 b4bf 8765 283f 413c 41bf d559 e63d
000002a0: b193 a6bf d3f4 14bf a2cf 2e3f a936 c8be
000002b0: 4211 ab3d 10d6 90bd 6083 57bf 9bf3 11c0
000002c0: 9eeb 46bd 45cd 30bf 44bb 2c3f 93fd e5bf
000002d0: 14c2 d7bf 56a8 0d3f 0556 81bf a77d 7bbf
000002e0: 7b9a 2dbe 6b5a cabd 6d36 7b3e 8b3a 22bf
000002f0: 9af1 25bd 70f7 ff3c e7cf aebf 5633 d1be
00000300: 0b5f 223e 6b17 e6bf 7cff 76bf 3fd2 76bf
00000310: 8c6c f23d 99d5 43bf 7b3f f43e 5ce7 2dc0
00000320: 1eab c2be 77c7 09be dfb4 32be 72dc 4cbf
00000330: 09e5 f63e 4815 f7bf 0795 83be b084 1cc0
00000340: 9663 6c3f 5c43 87bf 8d73 e2bf c438 e9bf
00000350: bbee c9bf 598d 89be 03cd 963d cdf7 4bbf
00000360: edee 9d3e 1d3d 74be 9b43 a5bf 104f 9fbf
00000370: 5c5b 993e 8946 733e 6ebb adbf a92c ec3e
00000380: a4e0 41bf c912 e7bf e30f 423f b776 14c0
00000390: 1c71 843e f837 cdbf 0535 38bd a714 9cbf
000003a0: 64e3 6abe d3e8 d13e 4715 963d ce7b 19bf
000003b0: 36d0 f9bf 6410 f83e e2bd dfbf e998 523d
000003c0: 39b8 99bf fd3a ea3e b850 97bf c5ed 38be
000003d0: cdd8 e33e 28ea c0bf ab36 1abe f24a c2bf
000003e0: 0d59 023c 705d 7b3e 07ce cebe 860d 8abf
000003f0: eedf b8bf 1b2f 1c3f a800 f3be 9381 a4bf
-0.33660486 -0.581633 0.12811694 0.385742 0.2550276 -0.23413609 -3.1570556 -0.053577725
0.6816675 -1.5346324 0.33050793 -2.4258473 0.038595196 0.15951928 -0.9912508 -1.7192163
0.6789 -1.8637413 -0.87632406 -0.020988038 0.6780561 -0.5171283 -2.0685694 -0.20617759
0.81602204 -0.9217837 0.10943171 -1.9985539 -1.7792783 0.20066805 -1.8158708 0.9207137
-0.8342019 -0.5700685 0.39026734 0.37629446 0.47707754 -1.682957 -1.0643452 -2.782363
-1.5448688 -0.1277289 0.20122513 0.51006615 0.5237883 -1.1568869 -2.2570136 -0.6061574
-0.29276487 -0.20716622 0.67993677 -1.5289973 0.4681117 0.19437143 -2.6787498 -1.606909
0.07246557 -2.099761 0.21194004 -1.1178757 0.27222443 0.4852846 -3.0037587 0.59477335
-1.1788057 0.13012345 -0.076782994 -0.028679617 0.014083869 0.30358204 -2.4246857 0.34210116
-2.0782661 0.23484696 0.2260476 -0.086438365 -0.6720002 0.06683182 -0.7725971 -0.5240484
-0.9517367 0.14931126 -0.46982202 0.2945708 0.42182106 -0.41912177 -1.1247218 -0.701318
-0.15015706 -1.6544287 0.21446487 0.27984217 0.31513718 -0.75324863 -0.91102964 -1.0459886
-0.95882773 0.19237441 -1.153912 0.021149922 -1.4346437 -1.0724319 0.36835784 -0.8294866
-1.9133143 0.20704038 0.5832886 -2.0864418 -0.2692387 0.33521163 -0.6917938 -2.1666481
-0.57760185 0.4291831 -1.9796752 0.15303569 0.042795114 -0.63359076 -0.9349112 0.090222806
-1.1104268 -0.09683488 -0.06366403 0.30378115 -0.30787632 -0.4051788 -0.1678228 -2.80245
-3.117641 -0.15233515 0.33674476 0.3864039 0.3287204 -0.87245613 -0.6052383 -2.2606068
0.51727444 -0.34349295 -2.0427673 -0.28500098 0.16636804 -1.3810455 -0.5140509 -0.72287095
-1.1296794 0.29098675 0.18325129 -1.9309677 -1.0753535 -0.6791133 0.2894166 -2.4411304
0.08918804 0.26141256 -1.3736304 -2.1518703 -1.1794305 0.14854585 0.17692581 -1.9353604
0.396655 0.08018449 -1.6063173 -2.4134514 -1.4067731 0.6577992 -0.75482565 0.11247603
-1.3013822 -0.5818607 0.6828557 -0.39104202 0.08352901 -0.07072079 -0.8418484 -2.2804935
-0.048564546 -0.69063216 0.67473245 -1.796801 -1.6856103 0.55334985 -1.0104376 -0.98238605
-0.16953461 -0.09880527 0.2453248 -0.6337058 -0.040513612 0.031245917 -1.3657197 -0.4085948
0.15856569 -1.7975897 -0.9648359 -0.9641456 0.1183711 -0.764978 0.47704682 -2.717246
-0.38021177 -0.13454996 -0.1745181 -0.8002387 0.48221615 -1.930337 -0.25699636 -2.4455986
0.92339456 -1.0567431 -1.7691513 -1.8220448 -1.577598 -0.26865652 0.07363322 -0.7967499
0.30846348 -0.23851438 -1.2911257 -1.2446003 0.29952514 0.23757376 -1.3572824 0.46127823
-0.757334 -1.8052608 0.7580549 -2.3197458 0.25867546 -1.6032705 -0.04497244 -1.2193803
-0.22938305 0.40997943 0.07328277 -0.59954536 -1.9516666 0.48450005 -1.7479823 0.051415358
-1.2009345 0.4574813 -1.1821508 -0.18059452 0.44501343 -1.5071459 -0.15059917 -1.5179121
0.007955802 0.24547362 -0.4039156 -1.0785377 -1.4443338 0.6100938 -0.47461438 -1.2852043

l3.bias f4 [33]
00000000: 32ec e03e 605a 3d3f 7a8c e63e 72d1 15bd
00000010: 45d2 88be a9e5 16bf 6857 113e ff64 1dbe
00000020: 0e6c 333c 9aa1 cf3d 9a9a 6dbe c363 37be
00000030: 55d3 e73d 43a8 49be 93bf 0e3e 3f9d 7cbd
00000040: 9080 babe 414c f43c 6751 2abd 62ef a3bd
00000050: 2c3f c83d ed54 66bd 3d50 a7bd c166 96be
00000060: 9a97 fd3a c5e6 0a3e 7055 d23e 091f efbc
00000070: a0b0 8e3d 7fe0 27bd 13a2 65bd 9fcf 92be
00000080: bfe5 48bd
0.43930203 0.73966026 0.4502905 -0.036576696 -0.26722923 -0.58944184 0.14193499 -0.15370558
0.010951055 0.10138245 -0.23203507 -0.1790915 0.11319605 -0.19693093 0.13940267 -0.0616734
-0.3642621 0.029821517 -0.041581538 -0.08004643 0.09777674 -0.056233335 -0.08169601 -0.2937527
0.0019347549 0.13564594 0.4108081 -0.029189603 0.06967282 -0.04098558 -0.05606277 -0.28674027
-0.049047228
